model.pth (torch, 22974 bytes, 13 tensors)

layer1.weight f4 [64, 32]
000000 f5 1c 95 3e a3 a3 1f bf f6 5e 12 3e 0f 07 e2 3e
       0.29123655 -0.62359065 0.14294037 0.4414601
000010 1d 34 9e 3e 75 cb b6 3e 10 95 a1 3e 61 29 42 3d
       0.30899134 0.357021 0.31559038 0.047402743
000020 cd 1a 97 3e b6 10 ac 3d 28 35 85 3e 7d 53 35 3e
       0.29512635 0.08401625 0.26017118 0.1770763
000030 49 04 28 3c 73 64 b9 bf 92 91 11 bf 6d 13 13 3f
       0.010254928 -1.448378 -0.5686275 0.57451516
000040 88 2c 21 c0 25 e0 fe bc 30 97 7b 3e 67 e4 9b 3e
       -2.518343 -0.03111274 0.24569392 0.30447695
000050 ca a2 00 bf 6e 72 46 bf 37 05 5b be 08 7b 55 3e
       -0.50248396 -0.77518356 -0.21388708 0.20847714
000060 a9 bb fd 3d 37 fb 22 3d e2 b8 9d 3e 11 bc 85 be
       0.12389309 0.03979036 0.30805117 -0.26120046
000070 9b 1a ef bd fc 1f e0 3d 5e 7d 80 bd b5 55 3b 3e
       -0.116749965 0.109436005 -0.06273912 0.18294413
000080 43 67 aa bc 02 5f a2 3e 27 97 53 be 48 4a 0c be
       -0.020801192 0.3171311 -0.20663129 -0.13700211
000090 56 48 36 3d 44 46 15 bd 32 e6 34 3e ad 72 df 3e
       0.04450258 -0.036443964 0.17665938 0.43642178
0000a0 e1 b2 a4 bc bf a2 b9 bb 55 b2 3d bc fd 0a 96 bd
       -0.020104827 -0.005665153 -0.011578162 -0.073263146
0000b0 be cc 41 bd ca fe 01 c0 83 cd d9 bd 25 fe 3f 3e
       -0.047314398 -2.031176 -0.106349014 0.18749292
0000c0 32 e8 4a 3f 48 4f 1b 3f 7c 88 8d 3e 3a 33 bc bf
       0.7926055 0.6066785 0.27643192 -1.4703133
0000d0 a8 29 22 3e 1e f4 99 c0 48 84 5d 3e 48 74 03 be
       0.15836203 -4.8110495 0.21632493 -0.12837327
0000e0 44 2e 2b be f6 9a b5 3d 22 e9 da 3d bb be c1 be
       -0.16716868 0.08867447 0.10688998 -0.37840828
0000f0 b3 46 1b 3d d2 e7 87 3c bd 31 4e 3d 5e f5 34 3f
       0.03790922 0.016590033 0.050340403 0.706869
000100 51 bf be 3d d4 b7 81 bd d8 7b 17 3d 63 54 c4 bd
       0.093138345 -0.063338906 0.03698334 -0.09586408
000110 54 28 cc be 25 3f 76 3d 43 15 c0 be 2e 90 84 3d
       -0.39874518 0.060118813 -0.3751622 0.064728126
000120 dd ab 1f bd 99 4d b0 3d bc 2b 0f be f5 7d e0 3d
       -0.03898226 0.086085506 -0.13981527 0.109615244
000130 d7 16 10 be 56 89 7f be a2 1c 6f be 98 6e 07 3d
       -0.14071213 -0.24954733 -0.23350766 0.033064455
000140 66 41 3a 3d 6d bd ea bd a8 9e 10 bd 64 04 61 be
       0.045472525 -0.11461911 -0.035307556 -0.21974331
000150 f5 fa 41 be 6b c5 b9 bd 8e 3f 36 be d0 70 29 be
       -0.18943389 -0.090708576 -0.17797682 -0.16546941
000160 97 7b f1 bd 99 3c b4 3d 22 43 2b be 09 17 0b be
       -0.11791151 0.088006206 -0.16724828 -0.13583006
000170 cf 87 3a 3d 19 ef d8 bd cd a5 38 be c5 4e af be
       0.045539673 -0.10592479 -0.18031998 -0.34239784
000180 43 a7 0e bd 75 7b 16 3f 98 bb d3 bc 39 f7 0d 3f
       -0.034827482 0.5878213 -0.025846288 0.55455357
000190 c5 ca 45 3e 7c 0c 0a bd c0 91 fb 3e 4b 3a 83 3e
       0.19315632 -0.033703312 0.49134636 0.25630412
0001a0 b2 41 5e 3e 56 59 ac be 70 f3 54 be 78 8e 3b 3d
       0.21704748 -0.33661908 -0.20795989 0.045790166
0001b0 8f c6 3c be 21 63 c9 be be 0c bd 3e 95 01 8f 3d
       -0.18435119 -0.39333442 0.36923784 0.069827236
0001c0 82 eb 1a 40 5b 39 3b 3f 15 96 90 be 9e ce 76 3e
       2.4206243 0.7313439 -0.28239504 0.24102256
0001d0 33 ee 2c be 67 7e c1 3f a7 1c 33 be 22 cd de be
       -0.16887741 1.51167 -0.17491399 -0.4351588
0001e0 28 de da be 1c 2f e8 be 76 18 20 bf b6 70 06 bd
       -0.42747617 -0.45348442 -0.62537324 -0.032822333
0001f0 e9 84 02 bd 2d ad cc bd af 7e ad 3d f5 28 0a be
       -0.031865034 -0.09993968 0.084714286 -0.13492186
000200 25 2a 58 3e e8 69 15 bf 7f aa 28 3c af bf c6 3d
       0.21109827 -0.58364725 0.010294556 0.097045295
000210 65 74 40 be 50 35 ca be 48 0e c5 be 64 c7 5b be
       -0.18794401 -0.394938 -0.38487458 -0.2146278
000220 b1 37 59 be 45 c8 c8 bd 3b b8 06 3d e7 60 00 3d
       -0.21212651 -0.098038234 0.03289054 0.031342413
000230 43 1a d9 be b1 90 0f 3f ec 08 ed 3e b7 98 9b 3d
       -0.4240285 0.56080157 0.4629587 0.075974874
000240 f2 94 1e bf 79 6a b3 bd de 03 9d 3e ce 8e 0d 3e
       -0.6194602 -0.087605424 0.30667013 0.13824007
000250 cc 2b 03 be ff 94 7e bf ec ad 0d 3d 6f 37 b4 3e
       -0.12809676 -0.994461 0.034589693 0.35198542
000260 07 4e cb 3c 52 6a b3 3d aa 9f 0a 40 6b ab b0 bd
       0.02481748 0.08760513 2.1659951 -0.086264454
000270 70 f9 e2 3c a5 43 c5 bc 58 d6 05 3c 1e 79 37 bf
       0.027706832 -0.024080107 0.008168779 -0.71669185
000280 c9 58 ff 3d fb 13 44 bf 98 67 1a bf 60 40 d1 be
       0.12468106 -0.7659299 -0.6031432 -0.40869427
000290 36 b8 13 bf 3e 98 d8 be 9b 27 86 bd d0 ab 23 be
       -0.5770296 -0.42303652 -0.06550523 -0.1598351
0002a0 e2 e4 f4 3d 4a ff 82 bd 2e 52 ee 3a 0a de 8d bd
       0.119577184 -0.06396349 0.001818245 -0.06927116
0002b0 e3 89 c0 3e 13 96 e2 3e 0c 15 86 be 7f d4 29 bf
       0.376052 0.44255123 -0.26187932 -0.6633987
0002c0 13 7d e8 3e 4b b6 48 3d df 1c a0 be e1 98 ba 3f
       0.45407924 0.049001973 -0.31272027 1.4577905
0002d0 b6 61 74 3e d5 d8 09 bf b2 d4 64 bd 6c e7 bf bc
       0.23865399 -0.53846484 -0.055866905 -0.02342578
0002e0 f5 1a 6e 3d 4c 0f 1a be 7c 0d 19 be 4b fd fd 3e
       0.058131177 -0.15044898 -0.1494655 0.4960731
0002f0 4c 78 30 be 2b e2 b9 bc 3c b2 92 bc 2a 9e 79 bf
       -0.1723339 -0.022690853 -0.017907254 -0.97506964
000300 7d 39 04 be fa 7b 7b 3c 2e 50 91 3b e2 fd 79 3b
       -0.12912555 0.015349383 0.004434607 0.003814571
000310 71 d0 72 bc cc 4b d6 be 88 17 7c 3c e5 cc 23 be
       -0.014820204 -0.41854703 0.01538647 -0.1599613
000320 e6 17 35 be 21 a9 36 3d 6a 95 0d be 94 4a 00 be
       -0.17684898 0.044594888 -0.13826528 -0.1252845
000330 69 4d 1c bf 06 6a 1c 3f 03 15 59 be d8 7f 09 3d
       -0.6105562 0.6109928 -0.21199422 0.033569187
000340 b4 d5 d4 bf f2 87 aa be fb 1e 64 3e 07 ee 83 3e
       -1.6627717 -0.33306843 0.22277443 0.25767538
000350 e8 b2 85 be 34 ad a7 bd 21 16 74 bd 62 9a a5 bd
       -0.26113057 -0.08187333 -0.059591416 -0.08086087
000360 e7 ff 39 be 9c 3c 37 be 28 98 93 bd 59 16 b2 3f
       -0.18164025 -0.17894214 -0.07206756 1.391307
000370 f4 69 21 bd a9 0e d8 bd 75 e1 f5 bd 8b 29 ab 3e
       -0.039407685 -0.10549671 -0.12005893 0.33430132
000380 e7 90 a5 bd 47 33 88 bf 3b 90 18 3e 93 82 64 3d
       -0.080842786 -1.0640649 0.1489877 0.055788588
000390 64 0e 91 be 1f 70 3c 3e 14 f2 2b 3f f5 4d 02 be
       -0.28331292 0.18402146 0.67166257 -0.12725051
0003a0 b4 8f 69 3e 8b 54 25 bd 01 2a 3b 3e 06 30 bc bd
       0.22808725 -0.04036383 0.18277742 -0.09188847
0003b0 f6 64 14 bf f6 6a 9c bf fb 59 de bd d0 1f 6a 3d
       -0.57966554 -1.2220142 -0.10857006 0.057159245
0003c0 b4 07 a2 3f 82 4b 1b 3e b7 90 c3 3e 72 e6 8b 3e
       1.2658601 0.15165523 0.38196346 0.27324253
0003d0 81 dc 17 3e f0 99 4b 3f f9 43 30 be 21 8c c3 3d
       0.1483021 0.79531765 -0.1721343 0.09548212
0003e0 a5 05 c8 3e b6 49 01 3f 6f 34 a1 3e c8 52 b6 3e
       0.39066806 0.505031 0.31485316 0.35610032
0003f0 de f1 00 bd d5 46 77 3c f9 60 25 3e 35 7e b1 be
       -0.031480663 0.015092571 0.16150273 -0.346666

layer1.bias f4 [64]
000000 a5 6f e0 bd e2 dd 57 3c 3b 5b 37 be 44 88 c9 be
       -0.109587945 0.01317546 -0.17905895 -0.39361775
000010 42 4c e8 be 65 52 a2 be 52 4b 77 bf ed 9e d7 be
       -0.4537068 -0.31703487 -0.96599305 -0.42113438
000020 3b c0 d2 bd 34 cb 29 bc 82 60 6d be e3 57 f1 3e
       -0.10290571 -0.010363389 -0.23181346 0.47137365
000030 27 ee d7 bd 16 78 ad bd f9 7d 01 bf 58 7d 98 be
       -0.10543471 -0.0847017 -0.50582844 -0.2978313
000040 ce 8f 35 be f4 9c 89 3c ac 44 16 3c d5 20 7e be
       -0.17730638 0.016798474 0.009171646 -0.24817212
000050 80 c3 ee bd 71 e8 da bd 54 18 1e bf 52 4c e0 bd
       -0.116583824 -0.10688866 -0.6175587 -0.10952057
000060 67 9d c9 3e dc 47 1e bf 29 81 83 3f 71 74 ec be
       0.393779 -0.618284 1.0273792 -0.46182588
000070 8c db cd 3e d5 e4 64 3d aa 6e 97 be 2e 7b 79 be
       0.40206563 0.055882294 -0.29576617 -0.24363396
000080 06 f0 69 3e a3 c2 57 3e 17 f3 90 3e 76 7d 47 3c
       0.22845468 0.21070342 0.28310463 0.012175908
000090 1f 41 80 bf 15 b3 4d 3f af 39 bf 3e 11 29 a9 3e
       -1.0019873 0.8035138 0.37348697 0.33039144
0000a0 8a 24 01 3f a2 bc b7 3e 68 77 1d be 8b 7b e2 bd
       0.5044638 0.35886103 -0.15377581 -0.1105872
0000b0 17 72 51 3e 4c 29 90 be d0 ea 27 be 78 f6 30 bd
       0.20453678 -0.28156507 -0.16398168 -0.0432038
0000c0 40 81 19 be e5 07 69 3c 96 f4 56 be 61 63 27 be
       -0.14990711 0.014223074 -0.2099174 -0.16346504
0000d0 a2 6e 0d bf a2 ef ec bd 97 8f 78 be 67 1c f9 be
       -0.5524694 -0.11569144 -0.24273525 -0.48654482
0000e0 6e 0c 9d be 6f 50 38 3e 43 30 72 3d 63 66 b9 3d
       -0.30673546 0.17999433 0.059128057 0.09052732
0000f0 e7 62 9a 3e fb 86 10 3c 97 ed 48 be 63 77 5e bf
       0.30153582 0.008821244 -0.19621883 -0.8690092

batch_norm1.weight f4 [64]
000000 bb 1f bd 3e ec 5a 19 3f 3a ec 5f 3f 83 fc d8 3e
       0.3693827 0.5990436 0.8746983 0.4238015
000010 84 14 3e 3f b7 fa 86 3f 86 ac b0 3f 24 1d 08 3f
       0.74250054 1.0545262 1.380265 0.53169465
000020 a6 b9 6f 3f 3d fc e4 3e f8 69 ac 3e 00 8f 3e 3f
       0.9364265 0.44723693 0.33674598 0.7443695
000030 e2 0b 33 3f ab 95 33 3f b8 35 d9 3e 1c 5d 2d 3f
       0.69940007 0.7015025 0.42423797 0.677202
000040 60 f3 ed 3e c4 0c 81 3f 39 36 60 3f 80 ae 0e 3f
       0.46474743 1.0082021 0.8758274 0.55735016
000050 32 13 4a 3e 8c ee 65 3f 09 88 36 3f 4a 63 79 3f
       0.19733885 0.8981712 0.71301323 0.9741713
000060 ee 0f 73 3f 8e d5 80 3e 8f ba a0 3f ab 63 ff 3e
       0.9494618 0.2516293 1.2556933 0.49880728
000070 87 b2 9d 3f e9 c5 40 3e 62 5b 05 3f e3 c5 64 3f
       1.2320107 0.18825497 0.52092564 0.8936445
000080 61 8b 05 3f 85 c9 5e 3f cb 6e 1e 3f ee ee 7b 3f
       0.521658 0.87026244 0.61887807 0.9841145
000090 96 dc f2 3e 34 c9 83 3f d8 aa a7 3f a5 b4 1c 3f
       0.4743392 1.0295777 1.3099012 0.6121314
0000a0 6a 82 4d 3f 85 52 2c 3f 00 00 80 3f 94 1e 46 3f
       0.8027712 0.67313415 1.0 0.7739041
0000b0 7b 81 29 3f ad c6 f7 3e a2 97 52 3f 34 af 47 3f
       0.66213197 0.48393765 0.82262623 0.78001714
0000c0 b5 c0 bb 3e e5 36 96 3e eb c7 67 3f bb 63 be 3e
       0.3667046 0.29338756 0.90539426 0.37185463
0000d0 a2 6d c4 3e 20 bb 64 3f 8f 7b 0a 3f 57 53 ce 3e
       0.38364893 0.8934803 0.54094785 0.40297958
0000e0 2e b0 be 3e 95 48 0b 3f 0a 3a 85 3f c1 b9 f6 3e
       0.3724379 0.54407626 1.0408337 0.48188594
0000f0 78 7d 53 3e 01 08 77 3f 75 8a 4d 3e dd 05 31 3f
       0.20653331 0.9649659 0.20072348 0.6914957

batch_norm1.bias f4 [64]
000000 fa 9b a6 3e 15 58 1f 3e b3 58 d8 bb 29 f3 74 bd
       0.32540876 0.15560944 -0.0066023706 -0.059802208
000010 21 1c 84 3c e5 9e 8c bd f7 16 c7 3d 27 34 05 bf
       0.016126694 -0.06866244 0.09721177 -0.52032703
000020 75 a3 d3 3b 90 6e 89 be 38 04 0c bf 4e 84 dc 3e
       0.0064586946 -0.26842165 -0.5469394 0.4306969
000030 0c c1 6a 3e c8 59 12 3d 55 95 93 be b4 4f d3 be
       0.22925204 0.035730153 -0.2882487 -0.41271746
000040 b9 cb 8f be 23 45 a9 3b 7c 0b 15 3e 7e dd ee 3d
       -0.28085116 0.0051657124 0.14555162 0.1166334
000050 a6 ad 96 be f0 d1 a2 3e 4f 3d f7 be 20 9c 41 3f
       -0.29429358 0.31800795 -0.48288962 0.7562885
000060 c4 73 f1 bd 4c b8 a9 be 35 52 4e 3e 52 93 f0 be
       -0.11789659 -0.3314842 0.20148547 -0.46987396
000070 44 10 53 bd 3f c4 23 3f 27 92 df be 57 7e 11 bc
       -0.051529184 0.6397132 -0.43666193 -0.008880219
000080 1a 44 9d 3e b2 b1 c6 3e 16 68 ad 3e 68 78 8b 3b
       0.3071602 0.38807446 0.33868474 0.004256297
000090 11 57 ad bc 06 85 98 3c a5 b9 5d be db f8 31 3d
       -0.02115968 0.018618118 -0.21652849 0.043450218
0000a0 80 f8 ca 3e 4f a5 62 3e cf 19 1f 3f 9b 09 41 3e
       0.39642715 0.22133373 0.62148756 0.1885132
0000b0 e3 ef 87 3e 86 4b 67 be 20 70 92 be e4 a9 30 3e
       0.26550207 -0.22587404 -0.2860117 0.17252308
0000c0 fa 8a da be d4 bc d5 3c 2e 2c 6e 3c f8 1d 72 3d
       -0.42684156 0.026091017 0.0145369 0.05911061
0000d0 c3 47 a9 be 5e b4 d2 ba 4c d6 70 be 63 c6 c2 bd
       -0.33062562 -0.0016075482 -0.23519248 -0.095104955
0000e0 c1 67 cb be f9 47 d0 3e 54 14 c0 3a cd 06 b1 3e
       -0.39727595 0.4067991 0.0014654496 0.345755
0000f0 6e 4c 2c bd 56 05 71 3c a4 17 f2 bd d7 dd 9c be
       -0.042065077 0.014710745 -0.11820915 -0.30638

batch_norm1.running_mean f4 [64]
000000 b9 58 31 40 8f 42 31 3e 68 5c f8 37 fd 2f a2 3f
       2.7710402 0.17310546 2.9606934e-05 1.2670895
000010 4b 24 14 40 df fc 76 3f 81 f9 93 3f 35 6d 88 40
       2.3147151 0.964796 1.1560518 4.263331
000020 f8 f4 bd 11 7f 90 85 40 6a e6 63 40 49 b6 87 3f
       2.9969916e-28 4.1738887 3.5609384 1.0602504
000030 cc 22 d6 3e 6b 70 d4 3f 18 58 52 40 53 b1 8b 40
       0.41823423 1.6596807 3.2866268 4.365396
000040 26 06 69 40 e9 f4 d0 1e 51 c6 db 3c ca 76 15 3f
       3.6410003 2.2124149e-20 0.026827963 0.5838438
000050 c8 cb 4d 40 74 ff 52 3f a0 f7 99 40 04 00 00 00
       3.2155628 0.8242104 4.8114777 6e-45
000060 43 88 53 3f 0b b4 9a 40 70 5d 80 3f 10 77 75 40
       0.82629794 4.834478 1.0028515 3.835392
000070 9b 31 89 3d ce 4f 13 3d 3f bc 60 40 bf 53 25 34
       0.066989146 0.03596478 3.5114896 1.5397289e-07
000080 d0 4a 40 3f 31 46 29 3f 5e 2b d5 3f 04 00 00 00
       0.75114155 0.6612273 1.665386 6e-45
000090 2f f5 0e 3f e2 74 3e 3f a2 73 23 3f 0b 83 80 3e
       0.5584287 0.743971 0.63848317 0.25099978
0000a0 c4 d7 82 3f f2 f4 69 3f 00 00 00 00 3a 46 2c 3e
       1.0222096 0.9138938 0.0 0.16823664
0000b0 0c d2 2f 3e 82 f9 c5 3f 7a a3 4b 3e dd 75 0c 3d
       0.1716997 1.5466769 0.1988658 0.03429209
0000c0 b4 24 86 40 d4 5e e7 3f 04 00 00 00 95 35 ea 3f
       4.1919804 1.8075814 6e-45 1.8297602
0000d0 d0 aa 75 40 04 00 00 00 cb 1f a3 3f 28 33 8f 3e
       3.8385506 6e-45 1.2744077 0.27968717
0000e0 be 54 98 40 2e 1b 99 3f 16 ae 99 37 21 e1 89 3f
       4.7603445 1.196142 1.8320086e-05 1.0771829
0000f0 50 28 2f 3e 04 00 00 00 a9 39 f8 3c f8 0d c7 3f
       0.17105222 6e-45 0.030300932 1.5551138

batch_norm1.running_var f4 [64]
000000 28 e6 b5 3f 83 ac 22 3e 98 c5 5c 37 18 4e 5c 3f
       1.4210863 0.1588612 1.3159028e-05 0.8605666
000010 87 5d a9 3f e4 4b c8 3f 6c 8a c3 3f a3 54 f2 3f
       1.3231667 1.564816 1.5276618 1.8932079
000020 8d 93 bd 10 2f 64 18 40 e0 5c 9e 3f 39 19 c4 3f
       7.4774694e-29 2.3811147 1.2372093 1.5320197
000030 76 15 25 3f e5 c1 a3 3f cd 7b fb 3f 01 81 c6 3f
       0.6448587 1.2793547 1.9647156 1.5508119
000040 c5 d5 c6 3f ba 15 85 1e 04 ae b5 3c 3f 12 7e 3f
       1.5533987 1.4090909e-20 0.022177704 0.9924659
000050 38 5e ae 3f 18 69 8c 3f 64 08 e3 3f 04 00 00 00
       1.3622503 1.0969572 1.7736936 6e-45
000060 66 08 24 3f b2 23 9e 3f 42 d7 6d 3f 9a 27 1c 40
       0.64075315 1.2354643 0.9290658 2.439917
000070 89 fa bf 3d fa 71 0e 3d 64 7c ba 3f ae 81 1e 33
       0.09373958 0.034776665 1.4569211 3.6905185e-08
000080 cd b0 22 3f 05 69 5b 3f ab f7 ed 3f 04 00 00 00
       0.63551027 0.8570712 1.8591207 6e-45
000090 7d aa 31 3f d5 77 85 3f 01 f6 4a 3f 79 43 b3 3e
       0.6940077 1.0427195 0.7928162 0.35012415
0000a0 cb 88 b2 3f de 68 9c 3f 04 00 00 00 ed 15 50 3e
       1.3947996 1.2219503 6e-45 0.20320864
0000b0 38 62 5c 3e b5 40 16 40 26 f1 8b 3e 61 55 f1 3c
       0.21521842 2.3476994 0.2733242 0.029459657
0000c0 7c 91 cf 3f 72 da cd 3f 04 00 00 00 07 53 88 3f
       1.6216273 1.6082289 6e-45 1.0650338
0000d0 a9 5a 31 40 04 00 00 00 5e c4 68 3f 37 44 ab 3e
       2.7711585 6e-45 0.9092463 0.3345048
0000e0 a1 b1 33 40 f4 fc bc 3f 92 dc 4f 37 45 8a 64 3f
       2.8077166 1.4764695 1.2389517e-05 0.8927348
0000f0 68 e9 44 3e 04 00 00 00 5d e7 b2 3c a2 7a e6 3f
       0.19229662 6e-45 0.021838838 1.8006175

layer2.weight f4 [32, 64]
000000 9c 9a 2f 3d b8 54 48 bf c5 5f 1a bd e4 8d dc 3d
       0.042872056 -0.7825427 -0.03768899 0.10769251
000010 24 96 d3 bc dd f9 87 3f cb 19 08 3f 30 27 1b bd
       -0.025828429 1.0623127 0.53164357 -0.03787917
000020 a4 16 f5 bc 32 62 88 3d c9 05 0d 3f f5 b8 03 3f
       -0.029918022 0.06659354 0.5508695 0.514541
000030 9e 50 59 3e 6e 59 93 3d 87 2b 42 bf b5 e6 18 bf
       0.2122216 0.07194792 -0.7584767 -0.5972703
000040 ab 23 7e 3d 20 2e 13 bd d8 7f 8f bd 70 e3 e0 3d
       0.062045734 -0.03593266 -0.07006806 0.1098088
000050 80 87 09 3e b7 28 11 3e a0 b3 a2 3e 21 59 7c bf
       0.13430595 0.14175688 0.31777668 -0.985735
000060 03 12 fa bd e7 e2 8e bb 60 44 4a bf 24 b6 f5 bd
       -0.12210467 -0.004360545 -0.7901058 -0.11997631
000070 a7 96 12 3f 60 8a 9e bf 22 a0 01 3f 32 47 28 3d
       0.5726113 -1.2385979 0.5063497 0.041083522
000080 78 a4 04 3e 35 15 58 3c 64 dc ae bd 57 a5 53 bc
       0.12953365 0.01318865 -0.0853813 -0.012917838
000090 7f 3a 11 3e e7 52 1f 3e fc 7e 24 bf 15 4f f4 3e
       0.1418247 0.15558968 -0.6425626 0.47716585
0000a0 36 57 1f 3f 24 0e 5b 3e 8e 79 85 bf 89 ca b4 3d
       0.6224245 0.21392113 -1.042772 0.08827693
0000b0 9f e2 a6 3d ca 39 05 bf 19 c5 81 3e 09 b3 d2 bc
       0.08148693 -0.52041304 0.25345686 -0.025720136
0000c0 f3 ef 32 bf 8d 04 b5 be 25 84 99 bd f5 4c 7d bf
       -0.69897383 -0.35355034 -0.07495908 -0.9894555
0000d0 56 2d 4d be 4e b0 a3 3d 5c cf 5a bd b7 b0 f7 3d
       -0.20036826 0.07992612 -0.05342041 0.120942526
0000e0 70 06 61 bd 84 e0 83 be 5d 8b c9 bc 60 71 0f 3e
       -0.05493778 -0.2575723 -0.024602586 0.14008093
0000f0 fa 07 60 be e0 46 02 3d b4 3d 80 3d 1f 34 bf be
       -0.21878043 0.031805873 0.06261769 -0.37344453
000100 b2 96 a4 3e f1 7f 20 3c ed 15 8c 3c e5 9e ff bd
       0.3214622 0.009796129 0.017100299 -0.124814786
000110 1a a2 3a bf 52 f3 19 3f 50 e2 59 3f 21 f1 82 be
       -0.729036 0.601369 0.8511095 -0.25574592
000120 88 1c cc 3c 36 de 1d 3e a6 04 54 bd 33 8c aa be
       0.024915949 0.15416798 -0.051762246 -0.3331009
000130 bf b3 1f 3e 58 d8 c0 3e d8 c3 78 3e f5 f0 e6 be
       0.15595911 0.37665057 0.24293458 -0.4510571
000140 02 b1 b3 3d c8 98 93 3c 64 8e 1b 3d e5 6b f6 be
       0.08773996 0.018017188 0.03797759 -0.48129192
000150 3b 1f a1 3e 93 7d 6b be ff eb de 3e a6 6e 28 bf
       0.3146914 -0.22997122 0.43539426 -0.65793836
000160 44 c3 53 bf ae ea 98 3e fd 13 4b be b8 8f 93 3e
       -0.82719827 0.29866546 -0.19831844 0.28820586
000170 68 57 41 3f ef d3 7d bf 63 25 0a 3f 89 cb 0b bc
       0.75523996 -0.9915151 0.539633 -0.008532413
000180 82 ae b9 bd 08 3c 09 be aa d7 22 be da 42 c1 3c
       -0.09066488 -0.13401806 -0.15902582 0.023591448
000190 6f 0e f9 3e a5 6a 08 3f 38 85 60 bd 45 56 26 bf
       0.48643824 0.53287727 -0.054814547 -0.64975387
0001a0 65 65 fb be f3 6c 78 be 52 e4 0d bf 4c 5f d4 be
       -0.49100795 -0.24260311 -0.55426514 -0.41478956
0001b0 13 c4 83 be 5a d3 00 3d 26 c1 35 be 9e 1c 2b 3c
       -0.2573553 0.03145156 -0.17749462 0.010443835
0001c0 6d 7c 18 3d 5e 47 7c bd 2c 3f 88 bb 85 6e b8 bd
       0.037228037 -0.0615915 -0.0041579213 -0.09005455
0001d0 22 40 10 3e 8b a0 8f bc a2 43 dc 3e 34 d4 ca 3e
       0.14086965 -0.017532608 0.4302035 0.39615023
0001e0 56 9d 0a 3f dc a5 1c 3f a9 74 6c 3d df 36 d8 3e
       0.54146326 0.6119058 0.057728443 0.42229363
0001f0 5f 4a 11 bf 88 11 a3 bc f8 e2 a6 be b7 53 02 3e
       -0.56754106 -0.01990582 -0.32595038 0.12727247
000200 10 25 ea be d8 62 6d 3e 32 1c 29 bd ea 9d 09 bf
       -0.457314 0.23182237 -0.041286655 -0.5375658
000210 36 d0 36 bf ae 07 e3 3d 48 cc 36 bd 05 b4 a7 be
       -0.71411455 0.11085449 -0.04462841 -0.32754532
000220 98 58 8c 3d 24 a2 29 3f a2 e4 50 be ee 5a c1 be
       0.068528354 0.6626303 -0.20399716 -0.37764686
000230 44 54 2c 3e d1 14 1b 3e 54 81 21 bf 1c 51 a3 be
       0.1682902 0.1514466 -0.63087964 -0.3189782
000240 d3 f8 01 be e2 6e 5b 3d 0d 8d e2 bd 5a 70 28 3e
       -0.12692575 0.053572543 -0.110620596 0.16449109
000250 2b 09 74 3e d3 4b 0a bf df cd 07 bf a2 06 5e bf
       0.23831622 -0.5402195 -0.5304851 -0.8672887
000260 a5 72 72 3e 40 92 32 bd 05 a7 14 3f c2 3a 30 bd
       0.23676546 -0.043596506 0.5806735 -0.043024786
000270 b9 cb 44 3e a6 64 50 bf 55 c7 21 be 3e 01 86 bd
       0.19218339 -0.8140358 -0.15798695 -0.06543206
000280 12 9b 88 3d 3d 29 81 be 49 ed 58 3e 0f 4b 87 3d
       0.06670202 -0.25226775 0.21184267 0.06606113
000290 c7 34 e3 bc aa 55 d8 be c7 4c 95 bf 67 2a ed 3e
       -0.027735127 -0.42252856 -1.1664056 0.46321413
0002a0 48 34 0e 3e 00 73 0a bf b4 14 61 bf aa 65 83 be
       0.13887131 -0.54081726 -0.87922215 -0.256635
0002b0 34 5a eb 3d 3e 18 e4 be 8c 27 9c 3e 90 a0 7c 3d
       0.11491814 -0.44549745 0.30498922 0.06167656
0002c0 a6 1e b2 3d d8 64 a4 bd a3 1e 92 3d 39 2b 8b bd
       0.08697252 -0.08027047 0.0713475 -0.067953534
0002d0 46 69 49 3e 22 15 9c bd 98 29 68 3a 62 b4 1c 3c
       0.19669065 -0.07621218 0.00088562956 0.009564491
0002e0 1a 73 ba be 74 67 e6 3e e4 d0 c2 bd 02 26 83 be
       -0.3641594 0.45000803 -0.09512499 -0.25614935
0002f0 ee bb ed bd bb 95 f3 3d 94 2f 3b 3e ae 1e 86 3c
       -0.1160811 0.11893793 0.18279868 0.016372051
000300 20 98 89 3e fc 3b 9f bd 4a b9 53 bd 89 1d ed 3e
       0.26873875 -0.07775113 -0.051690377 0.46311596
000310 b9 b1 ba 3e fd e2 84 3e 7c 55 f8 bd 6e fd 7b bc
       0.36463717 0.25954428 -0.1212568 -0.015380247
000320 fa 74 87 3d 23 50 82 3e 2b e7 23 bd 13 06 79 bf
       0.066141084 0.25451764 -0.04001538 -0.97274894
000330 33 c8 a2 bf 8e 53 73 3e 89 77 94 bd 3e 79 e8 3e
       -1.2717346 0.23762342 -0.07249362 0.45405
000340 51 86 ca 3d 59 2a 62 3d 95 43 21 bd 4b b9 62 bd
       0.098889 0.055216167 -0.039371092 -0.05535249
000350 29 5f 08 3f ee f6 f6 3c 20 f5 da bc ba e8 d8 be
       0.532702 0.030147042 -0.026728213 -0.42365056
000360 ef ec 3f be 41 75 48 bd 60 92 6a 3d ca e4 4f bd
       -0.18742727 -0.048939947 0.0572685 -0.0507553
000370 06 ed a0 bf 15 49 bf 3e 1e fc bb 3e a5 c4 9c bd
       -1.2572334 0.37360445 0.36715788 -0.076546945
000380 10 af d3 3d 49 e6 8a bf 49 18 c2 3e d2 4d fb 3c
       0.10336125 -1.0851527 0.37909153 0.030676756
000390 35 e0 03 3e cf c6 1d be 6f 99 92 be 2f 98 ff 3e
       0.12878497 -0.1540787 -0.28632686 0.49920794
0003a0 af bc cd 3e dd 02 2f be b0 70 a9 be 6a 7c 88 3e
       0.40183017 -0.17090936 -0.33093786 0.2665742
0003b0 de c6 9f bf e9 ad 05 3f 4b e2 51 3f d5 de e0 3d
       -1.2482564 0.5221849 0.8198592 0.10980002
0003c0 4b b2 de 3d fe 76 bb be aa f4 a4 3d cb 76 93 bd
       0.108738504 -0.3661422 0.080544785 -0.07200392
0003d0 e5 8f 26 3f e1 d2 ec bc 18 73 36 be dc e0 fa 3d
       0.65063316 -0.028909149 -0.17817342 0.1224992
0003e0 38 8b d7 3d e7 72 7b 3d e7 15 ef bc a6 3b 51 be
       0.10524601 0.061388876 -0.029185249 -0.2043291
0003f0 58 b7 17 3e 0b fb a9 3d 4f 7b 01 bf 42 f0 10 3f
       0.14816034 0.08299836 -0.5057878 0.56616604

layer2.bias f4 [32]
000000 5b 36 87 bf 2f c0 06 bf 54 f9 7a bf 6b c9 41 be
       -1.0563463 -0.52637 -0.98036695 -0.18924491
000010 7c 19 15 3e 7c 79 64 3d 8d 48 61 bd 07 76 46 bf
       0.14560503 0.05577992 -0.05500083 -0.77523845
000020 6d 5a 8d be 05 7d e0 be b1 fe 77 be f8 57 22 bf
       -0.27608052 -0.43845382 -0.24218251 -0.6341548
000030 eb dc 0c bf 28 48 bd bd 46 e8 ac 3e 70 75 8a be
       -0.55024594 -0.09242278 0.3377096 -0.27042723
000040 eb ff 28 bf 15 25 63 3c 84 ee 8e bd 09 95 c9 bd
       -0.660155 0.0138638215 -0.06979087 -0.09842879
000050 6f 55 31 be 06 d9 1e bf 0b 17 b9 bd 27 ef 39 3d
       -0.17317747 -0.620499 -0.09037598 0.04539409
000060 9a 29 04 3e 54 dc bf be f6 c3 0a be d2 09 7a be
       0.12906495 -0.37472785 -0.13551316 -0.24417809
000070 4b a1 0e bf 8e 27 c4 be 14 bf f6 bd e3 d8 6f bf
       -0.55714864 -0.38311428 -0.12048164 -0.9369032

batch_norm2.weight f4 [32]
000000 95 cc c4 3e 92 c5 19 3f bb ef 05 3f 9a 31 11 3f
       0.38437334 0.60067093 0.52318925 0.5671631
000010 17 d9 f9 3e 84 dd d9 3e 84 f6 e6 3e a7 e0 33 3f
       0.4879844 0.42551816 0.45109951 0.7026467
000020 9b ad c8 3e 49 dd 07 3f b2 03 82 3e de b8 01 3f
       0.3919495 0.5307203 0.25393444 0.5067271
000030 e9 c1 b2 3e 94 e3 21 3f ad 7b 00 3f de 91 c8 3e
       0.34913567 0.6323788 0.50188714 0.39173788
000040 93 a6 ea 3e a4 86 cf 3e f3 07 33 3f 19 f1 ec 3e
       0.4583021 0.4053241 0.69934005 0.46277693
000050 38 24 97 3e fd 72 0d 3f 5c 2e 2b 3f 9c b4 2a 3f
       0.2951982 0.55253583 0.66867614 0.6668184
000060 31 c0 a1 3e 13 6a ad 3e b4 a1 6c 3e 68 44 c4 3e
       0.31591943 0.3386999 0.2310856 0.3833344
000070 8b c7 e0 3e f7 7a a5 3e 37 fd b8 3e e6 b1 12 3f
       0.4390224 0.32320377 0.36130688 0.573027

batch_norm2.bias f4 [32]
000000 97 be 28 3e 23 64 fe 3d c5 49 2e 3e 9e 79 14 be
       0.16478954 0.12421443 0.17020328 -0.14499518
000010 b6 db 26 be 3f 41 6f be 26 5e 08 be 84 04 91 bd
       -0.1629475 -0.23364733 -0.13317165 -0.070809394
000020 a1 ec 4c bd 9a fc 7f 3d 70 0c 45 bd a9 d1 1d be
       -0.050030354 0.06249676 -0.048107564 -0.1541201
000030 1e da e5 3d 0a 1e 77 be 89 84 11 be 6c 2a ae bc
       0.11223243 -0.24132553 -0.14210714 -0.021260463
000040 11 39 94 bd 79 30 9b 3d 5b 6d 5a 3e ee 30 c1 bd
       -0.07237447 0.07577605 0.21330778 -0.09433161
000050 95 ce 2a be d2 72 cf 3d 63 1b 40 be 2c 74 0b be
       -0.16680367 0.10129322 -0.18760447 -0.13618535
000060 72 2f 0f be 04 34 dd 3c 68 56 f6 bd 02 79 47 bb
       -0.13982943 0.027002342 -0.120281994 -0.0030437117
000070 39 f8 86 3d 56 50 e7 bd 76 12 16 be d5 73 7d 3e
       0.065903135 -0.1129462 -0.1465548 0.24751218

batch_norm2.running_mean f4 [32]
000000 e2 c8 a0 3e 4d d0 07 3f 9b ec 65 3e de 6b 1c 3f
       0.3140326 0.53052217 0.22453539 0.6110209
000010 a3 0d 32 3f ee f2 9c 3f 8c 41 0f 3f b3 51 93 3e
       0.6955206 1.2261636 0.5595939 0.2877327
000020 eb 6c af 3e 34 9f 78 3e 4c c0 16 3f 3a 74 9f 3e
       0.34262785 0.24279481 0.5888717 0.3114336
000030 80 c6 83 3e 20 08 4a 3f fa f5 6b 3e 0c 07 95 3e
       0.2573738 0.7891865 0.23043051 0.2910694
000040 6d 56 b5 3e ef 3c 01 3f 8f 72 03 3f d7 1a 54 3f
       0.354175 0.504836 0.5134668 0.82853454
000050 23 cc a5 3e 3c da a0 3e 2d 08 3f 3f c3 5d 07 3f
       0.32382306 0.314165 0.7462185 0.52877444
000060 56 3a 8d 3e cd 79 b6 3e 92 6b db 3e d5 f2 86 3e
       0.2758357 0.35639802 0.42855507 0.2635714
000070 e1 94 47 3e 99 6e 5c 3e ea 0e e8 3e d3 21 2b 3e
       0.19490387 0.21526565 0.4532388 0.16712122

batch_norm2.running_var f4 [32]
000000 48 a5 89 3e b0 ff 05 3f ad bc 14 3e 07 16 3c 3f
       0.26883912 0.52343273 0.14525099 0.7347111
000010 05 60 56 3f bc 1e 82 3f ca 85 f4 3e 59 dd e8 3e
       0.83740264 1.0165629 0.47758323 0.45481375
000020 55 00 95 3e d2 d8 45 3e c8 0f 1d 3f 4e 64 86 3e
       0.29101816 0.19320992 0.61352205 0.262484
000030 93 a3 6b 3e 34 44 60 3f 5d a0 50 3e 17 f2 86 3e
       0.23011617 0.8760407 0.20373674 0.26356575
000040 c0 f2 81 3e 88 d3 f2 3e dd a9 0f 3f 51 70 3d 3f
       0.25380516 0.4742701 0.56118566 0.73999506
000050 ab 45 97 3e 54 97 89 3e 82 6d 75 3f 47 13 f9 3e
       0.2954534 0.26873267 0.9587022 0.4864752
000060 9f 0a 57 3e 80 ba c7 3e d8 e0 b8 3e b2 f8 64 3e
       0.21000145 0.39009476 0.36109042 0.22360495
000070 38 ad 1b 3e 31 82 84 3e 0a 85 fe 3e f5 55 d2 3d
       0.15202796 0.25880578 0.49710876 0.10270301

layer3.weight f4 [1, 32]
000000 e2 8e 47 be 64 93 3b 3e d8 6d 45 be ab f8 11 be
       -0.19488099 0.18317944 -0.19280183 -0.14255016
000010 55 45 3f be 9b 76 f7 bd 88 8f d8 3d 1e 99 34 be
       -0.18678792 -0.12083169 0.105742514 -0.17636535
000020 89 a2 00 3e c7 5d 18 3e 6e c1 0c 3e 9e 22 21 3e
       0.12562002 0.14879523 0.13745663 0.15735862
000030 f7 28 10 be e6 11 10 be 8d f3 04 3e 2c 69 04 be
       -0.14078127 -0.14069328 0.12983532 -0.12930745
000040 6c 35 09 3e be 0e 2f 3e 71 b8 35 3e b8 40 10 be
       0.13399285 0.17095467 0.1774614 -0.14087188
000050 4f db f3 bd bd 4c 3b be f7 54 0f be 4c 83 12 3e
       -0.11907064 -0.18290992 -0.13997255 0.14307898
000060 07 b0 07 be a8 c4 05 be 4d 8e fe 3d 8a d2 b9 3d
       -0.13250743 -0.130633 0.124294855 0.0907336
000070 5a e2 1e be d6 c8 fb bd 34 9c 0e 3e 52 3c 43 3e
       -0.15516034 -0.12294166 0.13926774 0.19065979
